pretrained/best_weights.gcn.pt (torch, 99708 bytes, 8 tensors)

layers.0.bias f4 [72]
000000 50 6f 47 bf 23 e7 a0 bd 01 a7 d0 be 33 09 2c bf
       -0.77904224 -0.07856586 -0.40752414 -0.67201537
000010 2e 5e 3f be 1e 2d b5 be 6e 6d 0f bf 5f 47 fd bd
       -0.1868827 -0.35385984 -0.5602635 -0.123671286
000020 e3 ff 17 bf 31 48 18 3f 5c 3d 03 bf cd a7 d5 be
       -0.5937483 0.59485155 -0.512655 -0.41729584
000030 e5 d4 c5 3e ff d1 a2 bd 43 35 e9 be 8d 60 05 3f
       0.38638988 -0.0795021 -0.45548448 0.5210045
000040 67 b8 74 be c6 76 a8 bc 48 55 e0 be 20 f7 22 bd
       -0.23898469 -0.020564448 -0.43815064 -0.039786458
000050 bf 66 15 3e 76 06 1f 3e 99 fb c8 3d f9 cd d0 be
       0.14589976 0.15529808 0.098136134 -0.40782145
000060 7e ef ab bd cd e6 8d bd 10 07 db be db 9c 3a be
       -0.08395289 -0.069287874 -0.42778826 -0.18223898
000070 fe 87 94 be 9a 15 9d bd 81 ef 87 3e 3b 9e 53 bf
       -0.29010004 -0.07670136 0.26549914 -0.82663316
000080 5c a9 79 bd de 44 9d bd 60 3c 1f 3f 38 b7 b7 3e
       -0.06095253 -0.07679151 0.622015 0.35881972
000090 ed ed f9 be 95 6c e0 be 86 13 94 be ba 83 9c bd
       -0.48814335 -0.43832842 -0.28921145 -0.07642312
0000a0 ce 2c 32 bf 3d be d4 be 04 d5 b6 bd e9 73 63 bd
       -0.69599617 -0.4155139 -0.08927348 -0.055530462
0000b0 38 2c 33 3e 38 98 c7 3c 5d 06 ea 3e d7 a4 ae bd
       0.17497337 0.024364576 0.4570798 -0.085275345
0000c0 1d 5a f2 be 19 9b 49 be 8d 19 05 bf 5d 63 60 bf
       -0.47334376 -0.19688071 -0.5199211 -0.87651616
0000d0 ab e2 25 be 92 74 ac bd 15 80 9c bd 67 4b 47 be
       -0.16199748 -0.084206715 -0.07641617 -0.19462357
0000e0 51 5d f7 be e7 6e 65 be ef 9f a5 bd 62 d8 08 3e
       -0.48313382 -0.22405587 -0.080871455 0.13363793
0000f0 f8 f1 97 be 4d f5 97 bb df 64 94 bf 99 a4 22 bf
       -0.29676795 -0.0046373964 -1.1593283 -0.63532406
000100 83 00 6c 3f e2 23 1f bf 23 93 81 3f 3c 8b c7 be
       0.9218828 -0.6216413 1.0123028 -0.38973415
000110 27 a9 60 3d c5 92 27 be 0c 32 80 be dc c2 c4 3f
       0.054848816 -0.16364582 -0.25038183 1.5371966

layers.0.lin.weight f4 [72, 290]
000000 af 72 88 40 91 0d b8 3f cb a5 76 c0 c1 eb 1b 3f
       4.2639995 1.437914 -3.8538692 0.60906607
000010 ed c5 c9 be 28 90 76 3f 45 e5 a0 be ac 05 d3 bd
       -0.39408818 0.96313715 -0.3142492 -0.10303816
000020 22 cf 95 be 2f e3 94 3f 71 d9 6c be 6b 5e e7 3f
       -0.29259592 1.1631831 -0.23129822 1.8075689
000030 2f 15 22 3f 89 31 45 be dd bf 5b c0 29 da 15 c0
       0.63313574 -0.19257177 -3.4335854 -2.3414404
000040 45 38 f6 be 7d ea b0 be d8 e3 06 c0 48 5e c1 bf
       -0.48089805 -0.345539 -2.1076565 -1.5106897
000050 01 57 0c 40 39 da 83 bf 34 d9 d8 c0 a0 ae 3b c0
       2.1928103 -1.0300971 -6.776514 -2.9325333
000060 c7 89 a2 be a2 f8 5b c0 a3 2e a6 c0 f1 64 d6 bf
       -0.3174574 -3.4370503 -5.193193 -1.6749555
000070 24 36 da 3f ba 49 bc bf 0e 56 9c 3e ba cf 33 3f
       1.7047772 -1.471 0.30534405 0.7023884
000080 aa fe 9f c0 be c3 f5 bf 38 7e d8 3f f5 17 1e 40
       -4.999837 -1.9200361 1.6913519 2.4702122
000090 7a af 3b bf e1 86 1d bf c2 32 28 c0 e7 45 b7 c0
       -0.7331463 -0.61533934 -2.628098 -5.727283
0000a0 c5 c3 79 3f 6f d0 94 bf bb 63 b3 c0 68 c5 a7 bd
       0.97564346 -1.1626109 -5.605924 -0.08191949
0000b0 43 1f a7 bd 9c 71 4f bf 4e f5 ae bf 10 db 8f c0
       -0.081602596 -0.8103273 -1.3668611 -4.495491
0000c0 0d 1a af 3f 3b 55 03 be 80 88 d5 3b f6 cc d4 40
       1.3679825 -0.12825482 0.006516516 6.6500196
0000d0 bf 54 55 3e 42 e6 06 41 20 39 4f 3d 9c 60 5a 3d
       0.2083311 8.431215 0.050591588 0.05331479
0000e0 45 b3 c8 40 c6 33 c2 3f ed cb c1 3d 90 dd 26 40
       6.2718835 1.517205 0.09462724 2.607273
0000f0 90 c8 67 bf c8 d4 44 bf f6 f0 e2 bd 5a 5f 8f bf
       -0.9054041 -0.7688718 -0.11081116 -1.1200974
000100 4e 73 b1 bd 3d 11 90 40 f8 27 3a bd 10 e5 01 3d
       -0.08664571 4.5021043 -0.045448273 0.03171259
000110 3b a3 46 3f 1d 36 ba 3f 67 c4 97 c0 88 b2 07 3f
       0.7759282 1.4547764 -4.742725 0.5300679
000120 90 36 a0 40 14 b0 11 3c a0 15 46 40 e7 9c d1 3f
       5.0066605 0.008892078 3.09507 1.6376008
000130 38 13 2f 3f d8 97 c6 3e cf b5 6d 40 39 e6 7a 40
       0.683887 0.38787723 3.7142217 3.9203017
000140 9d c3 f3 be ce 6d 14 c1 78 c9 38 40 e7 18 7a bf
       -0.4761018 -9.276808 2.8872967 -0.9769425
000150 52 08 82 40 ed 8f d2 c0 29 8d 8a c0 d2 9c 96 bf
       4.0635157 -6.580069 -4.3297315 -1.1766608
000160 71 1d e5 bf b6 0b 35 c1 1a 03 65 c0 f7 bb 5e c0
       -1.789961 -11.315359 -3.5783143 -3.4802225
000170 b3 63 b9 3f 68 2b b5 c0 7b 9b b0 40 23 29 b3 40
       1.4483551 -5.6615486 5.5189795 5.5987716
000180 fd b6 64 bf f0 f8 4f 3d 0c 3a 17 40 17 58 f8 bd
       -0.8934172 0.050774515 2.362918 -0.12126177
000190 e9 e5 f9 bd 08 59 06 bd e3 57 8a bd 0a f5 68 bf
       -0.12202055 -0.03279975 -0.06755044 -0.909989
0001a0 bb 0a d4 3f bc e6 50 c0 2d ac 1b c0 62 85 9e c0
       1.6565775 -3.264083 -2.4323838 -4.953782
0001b0 ff fd a6 c0 1a f0 87 c0 0d 05 4a c0 d0 eb a0 c0
       -5.2185054 -4.2480593 -3.1565583 -5.0287857
0001c0 a7 0c fa bf dc a2 8c 3d 68 3c c0 3d f6 6c e0 3d
       -1.9535111 0.068670005 0.093865216 0.10958283
0001d0 3c 66 0c bd 1c 37 b8 3d b2 c3 ee 3d c0 ac b8 bd
       -0.034277186 0.08994886 0.1165842 -0.090173244
0001e0 fe f4 5e bd ac 89 b9 bd 3f 48 ec bd 40 a0 d4 3d
       -0.05443286 -0.09059462 -0.11537217 0.10382128
0001f0 20 77 b7 bd 76 06 de 3d ae c4 d9 3d 58 30 cb 3c
       -0.08958268 0.10841076 0.10633217 0.024803326
000200 0e 88 81 3d 68 ca d3 bc 1c d7 14 bd 04 81 5a 3d
       0.063247785 -0.02585335 -0.036337957 0.053345695
000210 21 d5 90 bd d0 39 08 3c 54 66 81 bc 68 af 90 3d
       -0.07071901 0.008314565 -0.015795864 0.07064706
000220 6c ba b4 3d 20 49 72 3c 60 2c 91 3b c4 2a ae bd
       0.0882462 0.014787942 0.0044303387 -0.08504251
000230 58 c3 62 bc 29 10 af bd 60 4b 95 bb f0 06 d0 3d
       -0.013840519 -0.08548004 -0.0045561045 0.10157573
000240 e4 53 99 bc 65 c1 88 3f b5 ac 8e bf 8a 85 4d bf
       -0.01871676 1.0684019 -1.1146456 -0.8028189
000250 e2 b6 81 3e f1 92 aa 3e 7b c8 b6 bf 8b 40 06 40
       0.2533484 0.33315232 -1.4279932 2.0976894
000260 20 dd ff bd 24 84 ce be 35 2a c7 3e ee 09 36 be
       -0.12493348 -0.4033519 0.3889939 -0.17777225
000270 a7 14 0b 3f 09 ed 76 bf 60 f3 0b 3f 3d 52 24 3e
       0.5432839 -0.96455437 0.54668236 0.16046996
000280 5e 17 16 be 34 ba 90 c0 cc 62 6b c0 b3 3c 26 be
       -0.14657351 -4.52273 -3.677905 -0.16234092
000290 fb f6 ae bf 37 d0 3b c1 7b 2f 03 c0 5d 0c 49 3f
       -1.3669122 -11.738334 -2.049773 0.7853449
0002a0 e5 65 02 c0 67 6e 15 c0 d0 0e 17 c0 6b 8a a2 c0
       -2.0374691 -2.3348634 -2.360279 -5.0793967
0002b0 98 f1 0d c0 f3 a8 37 c0 77 56 ef bf de 22 3e c1
       -2.2178707 -2.8696868 -1.8698262 -11.8835125
0002c0 eb df 5e c0 3e eb af bf cc d6 29 c0 51 d1 d8 bf
       -3.4824169 -1.3743665 -2.6537352 -1.6938878
0002d0 7d 76 e9 c0 12 ca 04 c0 f3 3f 19 c0 00 50 14 c0
       -7.295714 -2.0748334 -2.3945282 -2.3173828
0002e0 d8 61 c2 bf b0 51 29 c0 96 73 08 c0 48 41 b8 3f
       -1.518611 -2.6456108 -2.1320548 1.4394922
0002f0 80 8e 90 ba e8 a7 b3 bd c0 48 d0 bf d6 5d 24 c0
       -0.0011028796 -0.0877226 -1.6272202 -2.5682273
000300 8a ce 6c bf 8a 62 83 c0 da df d8 3d d8 1d f5 3c
       -0.92502654 -4.1057787 0.10589571 0.029921457
000310 f2 02 d0 c0 be 3f 1e be 71 02 fa c0 84 11 a6 bd
       -6.5003595 -0.15454003 -7.812798 -0.081088096
000320 00 1b 27 bd f4 4d 97 c0 e3 5f 37 c0 28 81 e4 bf
       -0.040797234 -4.728266 -2.8652275 -1.7851915
000330 6a f6 ee bb 2a b5 95 c0 5b 58 0f c1 9a 59 cd 3d
       -0.0072925584 -4.6783648 -8.959071 0.10026856
000340 3c 76 f6 bf 54 a9 d1 bf 53 1c ec bf 94 db 3a bd
       -1.9254832 -1.63798 -1.8446144 -0.045619562
000350 6a 3a 3c bd bc c3 56 40 97 d2 8e 40 60 17 d4 3f
       -0.045954145 3.3556967 4.463207 1.6569633
000360 bb bf 01 40 16 f3 21 40 7e da 9d 40 02 42 a9 40
       2.0273273 2.5304618 4.9329214 5.2893076
000370 98 aa 81 40 80 ab 92 40 67 5a 7c 3f e9 10 3b 40
       4.0520744 4.583435 0.98575443 2.922907
000380 5f 3c 3b 40 e9 46 ac 3f e2 ed cd 40 5e 4a 4d 40
       2.9255598 1.345914 6.4352884 3.207664
000390 75 9d d9 3e 98 91 28 bf 3e 39 aa bf f5 e3 81 c0
       0.42502943 -0.6584716 -1.3298719 -4.059077
0003a0 15 98 94 40 ef 0d b1 40 b2 48 e8 40 24 3e 66 bf
       4.6435647 5.532951 7.258874 -0.8993857
0003b0 6c f6 73 bf 56 93 1f 3f fd ba 1f c0 06 56 57 40
       -0.95297885 0.6233419 -2.4957879 3.3646255
0003c0 67 45 88 40 0c 09 dc bf dc 4c d0 bf b7 4e 93 c0
       4.258472 -1.7190261 -1.6273456 -4.6033587
0003d0 9a 4c fb bd a0 be ec bb e2 9e e5 bd ce 84 4e bd
       -0.1227047 -0.0072248727 -0.11211945 -0.05041962
0003e0 b3 f5 97 c0 92 67 bf c0 62 74 be c0 dc f2 b5 c0
       -4.7487426 -5.981393 -5.951707 -5.685896
0003f0 55 84 d6 c0 87 1d ae c0 cc 02 b5 c0 3e 34 b9 c0
       -6.703654 -5.4411044 -5.6565914 -5.787627

layers.1.bias f4 [32]
000000 ca d2 ad 3e 59 b3 40 3f ee aa ac bd ed 2d 86 40
       0.33949882 0.7527366 -0.0843104 4.193106
000010 52 85 e4 be 73 d6 ce be 19 c6 5b 3f d3 4c 10 bf
       -0.44632965 -0.40397987 0.8584915 -0.56367224
000020 2a 7e 20 c0 50 12 30 c0 79 09 3d bf 62 38 a3 bd
       -2.5077004 -2.7511177 -0.7384258 -0.079697385
000030 1c ce 99 bd b1 51 82 bf 45 c0 71 be 66 ba 1c bf
       -0.07510015 -1.018118 -0.23608501 -0.6122192
000040 64 d4 71 40 c8 3e b6 bf d3 7a d2 be 64 88 a3 bf
       3.7785883 -1.4237909 -0.41109332 -1.2775998
000050 3c 4a a0 be 7b 94 a8 bf 16 53 16 be 0b 09 00 be
       -0.31306636 -1.3170313 -0.14680132 -0.1250345
000060 a5 d6 f0 bf 0d 7e 14 bf e3 dc 92 bd c5 44 ab be
       -1.8815504 -0.5800484 -0.07171037 -0.33450904
000070 2c 0d 99 bd d0 52 df bc eb 4b 52 40 c6 a4 04 3f
       -0.074732155 -0.027261168 3.2858837 0.51813924

layers.1.lin.weight f4 [32, 72]
000000 37 47 37 c0 0f e0 89 3f c5 66 5d c0 66 f6 bc 3e
       -2.8637216 1.0771502 -3.4593976 0.36906737
000010 7d 41 e9 3f 01 92 03 c0 aa 38 95 3e f7 48 16 3f
       1.822311 -2.0557864 0.29144794 0.58705086
000020 9d 36 50 3e 49 d2 85 c0 a3 28 be c0 27 71 15 c0
       0.20333333 -4.1819196 -5.9424605 -2.3350313
000030 da 38 02 40 fe a5 63 3d 95 01 7a c0 5f 9f ac bf
       2.03472 0.055578224 -3.9063466 -1.3486136
000040 16 bf 21 40 35 23 97 3f 52 d1 03 40 10 7d 84 3f
       2.527288 1.1807619 2.059651 1.0350666
000050 d8 93 07 c0 03 c9 00 c0 01 2c b2 bf 45 24 71 c0
       -2.1183987 -2.0122688 -1.3919679 -3.7678387
000060 bb 83 a2 bd 8a 6d a9 bd c4 7f b9 3e 4d 9b b8 c0
       -0.07935282 -0.08272846 0.3623029 -5.7689576
000070 50 64 b8 3e cc 66 da bd d0 20 81 bf 97 04 39 bf
       0.36014032 -0.10664138 -1.0088139 -0.7227263
000080 57 d5 3e bf 50 43 62 bb ad d1 f4 3e 90 65 16 c0
       -0.7454428 -0.0034524985 0.4781622 -2.349949
000090 ca 28 4c 3f 9b b1 56 c0 b8 9b ca c0 6d 05 4c bd
       0.7974974 -3.3545902 -6.3315086 -0.049809862
0000a0 27 b1 af bd cf 28 34 40 3a 4c 9b bd 3a c2 bd bf
       -0.08578711 2.8149908 -0.075828984 -1.4824898
0000b0 5a b9 7e 3f 24 d9 99 bf 7a ad bd 3e 42 4e fa bd
       0.99501574 -1.2019391 0.37046415 -0.12221958
0000c0 47 af 91 be 11 84 cc c0 9d 48 01 c1 13 fa 72 bf
       -0.28454039 -6.3911214 -8.080228 -0.9491283
0000d0 fd 37 4e bf 26 17 b7 3d 9a 63 82 be f4 ae aa 3f
       -0.8055418 0.08939962 -0.25466615 1.3334641
0000e0 14 c4 e1 c0 21 79 24 c0 78 c5 96 3d 3a aa a5 c0
       -7.0551853 -2.5698931 0.07361883 -5.1770296
0000f0 5d c6 06 c0 1b 38 67 bf c6 53 60 c0 34 13 55 c0
       -2.1058571 -0.90319985 -3.5051131 -3.329297
000100 86 65 f9 bf b6 ff ad bf 37 85 af 3f 1d c8 17 3f
       -1.9484107 -1.3593662 1.3712529 0.59289724
000110 28 0a 95 bf 4b 1a 69 3f 16 d9 b0 3f ac 9a 24 3f
       -1.1643724 0.91055745 1.3816249 0.6429851
000120 d7 19 98 be 2f df f9 3f e2 2b 09 3f 11 4a 8b c0
       -0.29707214 1.9521235 0.53582585 -4.3527913
000130 45 fe 60 40 37 17 6d 3f 25 0c 0d c0 1b d3 ae bf
       3.5155194 0.9261355 -2.2038662 -1.3658174
000140 da 60 81 3d 66 e3 e1 3e 28 0e ce bf 75 83 17 be
       0.06317301 0.44118804 -1.609807 -0.1479624
000150 03 31 4e bd f4 06 5c 3d c4 6b 70 3f 18 02 85 be
       -0.05033971 0.05371757 0.9391444 -0.2597816
000160 c0 b1 1f c0 eb 03 06 3f 7d 59 38 c0 aa bd a4 3f
       -2.495224 0.5234973 -2.880462 1.2870381
000170 ca 1f d3 3f 0c 5a 19 bf f4 91 f1 3c 95 03 90 bf
       1.6494076 -0.59903026 0.029488541 -1.1251093
000180 7e 88 7f bd dc 10 28 3e 31 aa b6 bf d5 a9 95 be
       -0.06238603 0.16412681 -1.4270688 -0.29231134
000190 b6 d2 cf 3e 83 0f ed bc 83 2f 3b 3e c0 37 16 bf
       0.40590447 -0.02893806 0.18279843 -0.5867882
0001a0 54 b0 ad 3e 35 59 e9 bd 8e 89 84 3e 15 f5 67 bf
       0.3392359 -0.11393968 0.25886196 -0.9060834
0001b0 de e4 22 3f 40 49 08 40 63 b4 b7 bf 2e 3c b6 3d
       0.63630474 2.1294708 -1.4351925 0.08898197
0001c0 93 ed 46 bf d7 dd 8e bf 88 51 03 3e dc 2d c8 be
       -0.7770626 -1.116145 0.1282407 -0.39097488
0001d0 7d 3b 62 bf 9f 36 13 3f 20 18 6e bf b3 30 14 3e
       -0.8837202 0.5750522 -0.9300556 0.14471702
0001e0 87 a7 89 40 82 f5 bc 3f e3 12 92 3f 44 6e f5 3e
       4.3017 1.4762423 1.1412014 0.47935688
0001f0 b8 9f 91 bf 0b 18 64 3e 3c 30 9f 3e e0 fa 0e 3f
       -1.1376867 0.22274797 0.31091487 0.55851555
000200 19 45 f0 be e1 9e 38 bf 65 73 43 bd 35 ad 7c 3e
       -0.46927717 -0.7211743 -0.04771747 0.24675448
000210 0c 45 bd 3f 2a 16 50 c0 10 67 de 3e dd 11 3c 3f
       1.4786696 -3.2513528 0.43438005 0.7346476
000220 74 4b 09 bf 04 e2 85 40 f5 4e 03 c0 ed a3 80 40
       -0.5363076 4.18384 -2.0516942 4.0200105
000230 f7 e4 ce bf 0d 99 55 c0 a5 e2 06 40 6c 73 a7 3f
       -1.6163625 -3.3374665 2.1075833 1.3082099
000240 78 ae ac 3c 4e 18 2d be 0c c3 b8 3d 70 c2 46 be
       0.021079287 -0.16903803 0.09021577 -0.1941011
000250 cd f1 fc bd b5 62 8b bd 35 c0 f0 bc c6 13 bc 3b
       -0.12350807 -0.06805936 -0.029388526 0.005739662
000260 dc 24 76 be 67 32 c5 3d 57 e1 b8 bd 4d a9 f3 3c
       -0.24037498 0.09628754 -0.09027355 0.029743815
000270 23 a3 07 3d 5a 7f 21 be 37 ef 09 3e b1 c4 aa bd
       0.033114564 -0.15771237 0.1347016 -0.08338297
000280 a6 7a e5 3d 4f 8e 0c 3e ae 75 ac 3c d7 42 35 be
       0.11205034 0.13726161 0.021052208 -0.17701279
000290 02 dc 34 be 13 5a 78 be d2 44 df bb 83 88 13 3e
       -0.17662051 -0.2425311 -0.006813624 0.14407544
0002a0 c3 4e bd 3d e4 61 3d be bd c0 5d 3d b5 07 88 3d
       0.09243538 -0.18494374 0.054138888 0.06642095
0002b0 0a 8d 3a 39 22 34 dd bd 7b 4d f5 bc 2a b7 27 bd
       0.00017790883 -0.10800959 -0.029944172 -0.040946163
0002c0 30 8a 65 be e2 7c 1c 3e 8e 0c ef bd 17 75 37 3d
       -0.22415996 0.15282014 -0.116723165 0.0447894
0002d0 df 45 b5 3d e9 e6 5f bd 94 5d 3f be 5a 64 ff 3c
       0.088512175 -0.054663572 -0.18688041 0.031175781
0002e0 1e 9d 05 3d 98 e7 6d bc 0d 8c 5f be 98 73 2d be
       0.03262054 -0.014520548 -0.21830769 -0.16938627
0002f0 03 30 06 3e bf 74 27 be b3 9f 60 bd cf 4f 8e be
       0.13104253 -0.16353129 -0.0548398 -0.27795264
000300 fd 13 17 be 78 5e 2e 3e d0 b5 aa 3c 6f 43 8b be
       -0.14753719 0.17028224 0.020838648 -0.27199885
000310 59 18 5d be 5e f1 79 bd 04 6f 9d 3c 71 c3 9e 3d
       -0.21591319 -0.0610212 0.019217975 0.07752121
000320 15 8f 14 be 32 3b 99 be ca 0d 3b be 6b 7e fc 3d
       -0.14507706 -0.29927975 -0.18266979 0.123288
000330 0a e9 0d be 35 6a 91 be 61 6a 06 be 75 81 89 be
       -0.13858429 -0.28401342 -0.13126518 -0.2685658
000340 bf 37 88 be a2 ce 91 bd 97 9c a6 be 88 9c ed 3d
       -0.2660503 -0.0711949 -0.32541344 0.116021216
000350 f6 25 9b be aa 33 89 be 12 db 26 be 3b 1e 9d be
       -0.303024 -0.2679723 -0.16294506 -0.30687127
000360 f9 31 23 c1 ed df af c0 4a fa e1 3e 5a fb 5e c0
       -10.1997 -5.4960847 0.44136268 -3.4840913
000370 02 16 bd c0 9f fb 33 c0 e8 2e 38 bf 1a c9 78 c0
       -5.9089365 -2.8122327 -0.71946573 -3.8872743
000380 6b 8c 2c 40 39 0f d2 bf 87 e7 ce bf 40 a2 99 c0
       2.6960704 -1.6410896 -1.6164407 -4.801056
000390 3c d6 98 bf 98 62 5e be 5a 84 7a c0 e5 dd 42 3e
       -1.1940379 -0.21717298 -3.914328 0.19029959
0003a0 5d ce a8 3f 52 79 12 3f 9d fd b0 40 83 bc dc 3e
       1.3187977 0.5721637 5.5309587 0.43112573
0003b0 4b 59 21 40 0b f7 c3 3f 60 27 01 be 0d 44 47 40
       2.521075 1.5309767 -0.12612677 3.1135285
0003c0 7d 67 9d 3d dc ed 23 3d b2 f7 08 c0 0d 66 97 40
       0.076857544 0.040021762 -2.1401181 4.7312074
0003d0 32 4a 88 3f fb 26 6d 3e f8 fc 9d 3e 9c 65 64 40
       1.0647643 0.23159401 0.30857062 3.5687017
0003e0 6f 87 84 c0 67 0b 56 be b8 5d e4 3f 84 50 fc 3f
       -4.1415324 -0.20902787 1.7841101 1.9712071
0003f0 e5 fc f5 c0 f6 35 cb c0 81 af 24 c1 80 21 27 3d
       -7.687121 -6.350337 -10.292848 0.040803432

layers.2.bias f4 [16]
000000 7d 55 00 bf 11 6c aa be 44 9d a8 3e b4 6e d7 3e
       -0.50130445 -0.33285573 0.32932484 0.42076647
000010 24 11 9f bd ac 0b 35 bf 30 a4 41 3e 52 51 a2 bd
       -0.07766941 -0.70720935 0.18910289 -0.07925667
000020 27 fa 5a 3e 2e 90 ad 3f 43 bb 3a 3d a9 4e c7 3c
       0.21384488 1.3559625 0.045588743 0.0243295
000030 2d 9f 85 bd 5e 5c d0 bd d8 cb 21 3d 60 c3 28 be
       -0.06524501 -0.10173868 0.03950104 -0.1648078

layers.2.lin.weight f4 [16, 32]
000000 dc c9 b5 be b6 27 3d 3d 3c a3 b7 be 7e 05 60 bf
       -0.3550557 0.04618045 -0.35866725 -0.8750838
000010 7d dd 03 be e8 c0 0c 3e a3 3b e3 be 9d 40 82 be
       -0.1287746 0.13745463 -0.44381437 -0.2543992
000020 dc ee cc bb 75 41 78 be 74 5b 2c bf b4 c6 64 3c
       -0.00625406 -0.2424372 -0.67327046 0.01396339
000030 27 ad 8e be 25 e2 d0 3c 8d 78 2a be 1b 3c 25 bf
       -0.2786648 0.02549846 -0.16647549 -0.6454484
000040 f7 b1 39 bf f2 71 bb be b6 2a 87 be 7c 48 4f bd
       -0.7253718 -0.3661037 -0.26399773 -0.050606236
000050 6f d7 cd be f4 0f bc bd a5 ae 9a 3e 17 8c 8d 3e
       -0.40203425 -0.0918273 0.30211368 0.27645943
000060 8d 8e fc be df e7 07 bf b8 85 4a be 2b 90 a4 3d
       -0.49327508 -0.5308818 -0.19777572 0.0803531
000070 f6 1d 89 bd 96 27 0b be d2 ed 45 be 36 b7 b3 be
       -0.06695168 -0.1358932 -0.19329002 -0.35100716
000080 47 7c ad be a2 dc 8d be dc a9 22 3e ab 91 fd be
       -0.3388388 -0.27707392 0.15885109 -0.49525198
000090 d6 c2 14 3e 12 b1 8f 3e 4a 8e af be 68 b2 74 be
       0.14527449 0.2806478 -0.34288245 -0.23896182
0000a0 c8 de f9 3c 71 b0 86 3e 1f 25 0f bf b9 99 76 3e
       0.030501738 0.2630649 -0.5591602 0.24082078
0000b0 bb be cd 3d d6 04 4f bf 11 71 20 be de ae 94 be
       0.100461446 -0.80866754 -0.15668131 -0.29039663
0000c0 e6 fc 93 be f9 17 35 bf 80 73 c4 be 00 74 1e bf
       -0.28903884 -0.70739704 -0.3836937 -0.6189575
0000d0 05 8c 1d 3e 15 ea b6 bd 94 56 32 3e 44 74 8f bd
       0.15385444 -0.08931366 0.1741584 -0.07004598
0000e0 8e 19 f0 3d 04 d2 75 bd 88 03 38 bd 96 92 49 3d
       0.11723624 -0.06001474 -0.044925243 0.04921206
0000f0 5f 5d c0 be 40 d4 04 bf 3a b7 b7 be 01 76 5d 3d
       -0.37571236 -0.5188637 -0.35881978 0.054067615
000100 9c 13 11 40 99 c6 9d be 4a 98 79 be b3 b5 9f 3f
       2.2668219 -0.3081558 -0.243745 1.2477325
000110 68 1c 32 be 35 77 1f 3e 10 10 43 40 42 10 e2 3f
       -0.17393649 0.15572818 3.0478554 1.7661211
000120 45 01 20 40 99 ab c7 be 4e de 0e 3e dd 8f 36 be
       2.5000775 -0.38998106 0.1395199 -0.17828317
000130 f6 63 72 3e 2e 2b 88 3e fd 13 39 be 1a 61 3b be
       0.23670945 0.26595443 -0.18074031 -0.1829876
000140 18 6c cd 3f c3 5d 84 3d 30 25 ca bf c5 db 24 bf
       1.6048613 0.06463196 -1.5792599 -0.6439784
000150 5d c7 7e 3e f0 d0 da be c2 6a 87 bc ac e8 35 3f
       0.24880739 -0.42737532 -0.016530398 0.71058154
000160 f3 83 a8 be c9 6a 2d be b6 65 6c 3e 10 2e c3 3d
       -0.3291317 -0.16935267 0.23085675 0.0953027
000170 2a 7e c7 3e ef 1d f2 3f 8d b6 a2 3f 34 25 f8 bf
       0.38963443 1.8915385 1.271196 -1.9386353
000180 8d 63 70 3f 8b 71 79 3f d4 09 67 be b5 90 3d bf
       0.939019 0.9743888 -0.22562343 -0.7404893
000190 2f 8f ab 3e 0e dc 97 be d7 3c 1a be 84 c4 64 3e
       0.33507678 -0.29660076 -0.15062271 0.2234059
0001a0 7b dd a8 be 2e 0b dc be f5 89 95 bf 33 4f 73 bd
       -0.32981476 -0.4297728 -1.1682726 -0.059401702
0001b0 16 56 20 bc 2a a0 14 bf 61 2c 66 3e 76 6b bc bf
       -0.0097861495 -0.5805689 0.22477867 -1.4720294
0001c0 6f 25 9c bf 7f 5d 96 bf 46 46 5a bf c2 ca 52 bf
       -1.2198924 -1.1747283 -0.8526348 -0.82340634
0001d0 d8 15 68 be 6e 04 56 bf c6 92 bb 3e 77 5a 68 bf
       -0.22664583 -0.8360051 0.36635417 -0.9076304
0001e0 99 4c 8a be 57 8d c0 bf 6b fe 65 3e 1f bd 77 3d
       -0.27011564 -1.5043133 0.22460334 0.060483094
0001f0 f3 07 0f 3e db 58 85 bf ce cb 67 bf 10 c3 04 40
       0.13967876 -1.0417742 -0.90545356 2.0744057
000200 68 b6 82 be 06 24 54 be 23 1e 70 3e e2 de d0 be
       -0.2552979 -0.20716867 0.23448996 -0.40795046
000210 e9 b3 0b be e9 f2 91 3e b9 03 1c 3e 66 8a 8c be
       -0.13642849 0.28505638 0.15235795 -0.2744934
000220 3f 16 da be ee c3 16 3e 94 c4 ca be 47 db 7e be
       -0.42595097 0.14723179 -0.39603102 -0.24888335
000230 d8 dc fd bd a3 8f ab be aa 94 1f 3e be 17 dd 3d
       -0.12395638 -0.33508024 0.15584055 0.10795544
000240 01 eb 9f bc 16 b6 28 bc 85 d4 25 3c ec 0c af 3d
       -0.019521238 -0.010297319 0.010121469 0.085473865
000250 92 90 43 be 4b e8 dd be 51 7e 3a be 10 76 2f 3e
       -0.19098118 -0.43341288 -0.18212248 0.17134881
000260 2f 93 6e 3e ac 4d 82 be 3d 1d 09 be 0b 85 ab bd
       0.23298334 -0.25449884 -0.1339006 -0.08374985
000270 f9 ab c5 3d 3b 83 be be d0 f9 d7 be 09 f9 59 be
       0.09651942 -0.37209496 -0.4218278 -0.21286406
000280 8b 1e 00 3f b2 cc fa 3f a0 a0 37 3e 69 2e 01 bf
       0.50046605 1.9593718 0.17932367 -0.5046144
000290 de d0 90 be 80 10 ef 3e f3 45 c0 be 81 be 9f be
       -0.28284353 0.46692276 -0.37553367 -0.3120003
0002a0 a5 05 04 3c 79 16 ad bf 67 ea 0d c0 b0 94 4c be
       0.008057986 -1.3522483 -2.2174318 -0.19978595
0002b0 8b 9d b7 be 56 b1 19 c0 4b 09 f9 be 47 1a e1 bf
       -0.35862383 -2.4014487 -0.48639902 -1.7586144
0002c0 7a ff ce bf 54 94 32 c0 d2 b5 54 40 a0 9f 7d bf
       -1.6171715 -2.7903032 3.3235974 -0.99071693
0002d0 a8 55 e2 bd 36 e9 43 bf ca 64 02 3e 1e 20 a8 bf
       -0.11051494 -0.76527727 0.1273376 -1.3134801
0002e0 c7 25 06 bf 1d ca 1d c0 44 19 9d bd 56 ee 8a 3e
       -0.52401394 -2.465461 -0.07670835 0.2713496
0002f0 7a 65 57 3e 95 36 43 bf 42 eb c9 3d 72 5d c5 c0
       0.21034804 -0.7625516 0.09859325 -6.167657
000300 1c 45 59 3f c6 b1 08 3f ed c5 ef 3c f2 ab 86 3f
       0.8487108 0.5339626 0.029269183 1.0521224
000310 b1 c7 7f 3e 7b e6 0f bf 17 4d 37 40 dc fc f1 3f
       0.2497852 -0.5621106 2.8640802 1.8905292
000320 0a ee 72 40 6b 35 2d bf 87 93 9a 3e 4d e8 0c 3e
       3.7957788 -0.67659634 0.3019068 0.1376049
000330 f7 45 ac 3d 9e 3e 0f bf 0f c5 61 3e b3 1b f8 3e
       0.08411782 -0.5595492 0.22047828 0.48458633
000340 c0 7f bf 3f 56 2e 08 bf 94 41 dc bf ed a9 e2 bf
       1.4960861 -0.53195703 -1.7207513 -1.7708107
000350 6e 0c 33 bd eb a7 1e bf 65 ba 08 3e 24 e3 b9 bd
       -0.043713026 -0.6197497 0.13352354 -0.09076527
000360 46 9b c2 bf 8d 8d d5 3e 81 22 91 3e 47 eb 6a 3c
       -1.5203636 0.41709557 0.28346637 0.014338321
000370 2a 3a 9b 3e d9 ee 06 40 9d 56 87 3f ba c4 ad bf
       0.30317813 2.108328 1.0573307 -1.3575661
000380 8f 61 0f be 69 20 4e 3d ef e6 c7 3d b6 94 c2 be
       -0.1400206 0.050323877 0.09760844 -0.38004082
000390 fc b2 0c be 5c f0 b1 3d 09 e2 0b be 32 b3 c6 be
       -0.13740152 0.08688423 -0.13660444 -0.3880859
0003a0 b5 d8 a2 be 6f 5c 77 be dc 4d 9a be 23 58 37 39
       -0.3180596 -0.24156354 -0.30137527 0.00017485073
0003b0 d4 a5 41 3d 60 21 6f bd 47 73 c2 be 3d da 85 be
       0.047277287 -0.05838144 -0.37978575 -0.26143065
0003c0 07 96 c8 bd 10 13 20 be 35 18 b9 bd ff cc ac 3d
       -0.097942404 -0.15632272 -0.0903782 0.084375374
0003d0 d1 05 d5 be 2e c3 06 bf 8b 67 38 be 9f 43 c8 be
       -0.41606 -0.5264157 -0.18008249 -0.3911409
0003e0 42 12 9f bd 1b fa d7 bd 56 cf 2b 3e 39 aa b6 be
       -0.07767154 -0.10545751 0.16778311 -0.35676745
0003f0 a6 86 3c 3d 5d 27 89 be 1e cc a5 be 80 a0 8d be
       0.04602685 -0.26787844 -0.32382292 -0.27661514

predictor.bias f4 [2]
000000 9b 56 2d be 01 4f 2d 3e
       -0.16927569 0.16924669

predictor.lin.weight f4 [2, 120]
000000 62 39 22 41 c5 6f 61 40 39 9c 86 40 45 2b 42 41
       10.139009 3.5224469 4.20657 12.135564
000010 76 a0 1a 40 bf a1 8a 40 9b 99 04 41 ec 34 a1 3f
       2.4160438 4.3322444 8.287501 1.2594275
000020 f7 11 e5 40 fb d7 35 40 bf 60 af bb 7a 36 8a 40
       7.158443 2.8413074 -0.005352109 4.31915
000030 88 60 1a 40 08 ad 92 bd 35 81 cf 3f 99 77 ee 3f
       2.4121418 -0.07161909 1.6211306 1.8630248
000040 6c 20 67 40 cd 5f 79 40 c2 ad 8e c0 8d 4b b0 c0
       3.6113539 3.8964722 -4.4587107 -5.5092225
000050 89 1c d2 3e f3 3b 2b 40 d2 03 13 40 ac b8 30 3f
       0.41037396 2.675534 2.2971082 0.69031787
000060 a2 ae e2 bd b0 89 06 be f2 0b 98 40 86 90 1e 40
       -0.11068465 -0.13138461 4.751458 2.477571
000070 82 ec 8d 40 49 17 7c bd 9d 45 3c 40 e6 65 71 41
       4.4351206 -0.061545644 2.9417489 15.087378
000080 a5 ea 90 40 73 9b a2 3d 79 38 e2 c0 19 a3 03 40
       4.528643 0.07939806 -7.0693936 2.0568297
000090 b2 c6 5a 40 2a 63 41 3f de 15 1a 41 79 e0 b3 3d
       3.4183774 0.7554194 9.630339 0.08783049
0000a0 59 3a 39 41 cc be c9 40 35 cb 75 3e 95 8e 04 40
       11.576745 6.3045406 0.24003299 2.0712025
0000b0 30 65 56 be ef e7 10 40 19 fa fa 3f 74 88 80 3e
       -0.20937037 2.264156 1.9607574 0.25104105
0000c0 d8 a6 0c 40 d1 29 6a 3e 6a 2a 74 3f 3d 0c 2b 41
       2.1976833 0.22867514 0.9537722 10.690488
0000d0 fd b6 bd c0 73 24 9a bd 76 a9 01 be b1 70 c3 c0
       -5.9285874 -0.075264834 -0.126623 -6.1075063
0000e0 09 38 84 40 0c c4 a6 40 fb 34 02 be 01 b6 3a 40
       4.13184 5.2114315 -0.12715523 2.9173586
0000f0 db 96 c9 3f 18 10 2f 40 8e 91 be 41 50 59 09 41
       1.5749162 2.7353573 23.821072 8.584305
000100 59 ae 0d 40 6c 7a 46 3f d3 46 11 40 87 4d 7e 3e
       2.2137663 0.7753055 2.2699478 0.24834262
000110 cb f6 43 40 82 bd 8f 40 e7 78 ee bf 20 aa 87 3f
       3.061938 4.4918833 -1.8630646 1.0598793
000120 06 b4 78 40 62 38 6a 3f 11 27 df bd 11 90 df 3f
       3.8859878 0.91492283 -0.10896123 1.746584
000130 3f 88 cb be 87 18 fe 3e 39 2a 96 40 b5 0e 88 40
       -0.39752385 0.49628088 4.692654 4.2517953
000140 a1 25 1b 41 76 c9 af bf 69 15 5c bf d7 a8 9e bd
       9.696687 -1.3733356 -0.8597017 -0.077470474
000150 9f e6 dd bd 45 e8 b9 be 10 47 b1 bc 6f e1 77 bf
       -0.10835003 -0.3631002 -0.02164033 -0.9682836
000160 33 c8 2d 40 bb 00 fd be 1f a8 5c bd bb 36 0e c0
       2.7153442 -0.4941462 -0.05387127 -2.2220905
000170 71 71 ba be 5c 42 b9 bf 71 f3 c0 3e 94 9e 85 be
       -0.36414674 -1.4473376 0.3768573 -0.26097548
000180 3e 68 4a c0 9e 6f 99 bf 88 f3 1e be 30 10 d7 be
       -3.1626124 -1.1987188 -0.15522587 -0.42004538
000190 e0 45 bc 3d 45 a1 6d 40 ba 05 01 40 1a 56 eb 3f
       0.09193015 3.712968 2.0159745 1.8385651
0001a0 33 2b 0d 3e 2b 67 fa bd b8 00 1e bf 2b 41 14 3f
       0.1378601 -0.12226709 -0.61719847 0.5791194
0001b0 a6 6a b1 bd d1 0a a4 bf 3d 3e 26 bf ef e2 0d 3e
       -0.0866292 -1.2815801 -0.6493872 0.138561
0001c0 a2 1c 18 bf b5 13 bc 3f 69 a5 9b be 85 0b c5 bd
       -0.5941869 1.4693514 -0.30399635 -0.09621338
0001d0 e6 a1 16 3b ad c3 d7 3e b5 d4 f5 bd 55 50 18 be
       0.0022984683 0.42141476 -0.12003461 -0.14874394
0001e0 27 08 1e c1 fd d8 58 c0 4a 2b 88 c0 ac 1f 47 c1
       -9.87699 -3.388244 -4.2552843 -12.445232
0001f0 a5 dd 28 c0 c7 1d 84 c0 21 3b 01 c1 41 48 76 bf
       -2.638528 -4.128635 -8.076936 -0.96204
000200 9e 59 da c0 c3 b9 24 c0 88 2f ec 3d cb 4d 92 c0
       -6.8234396 -2.573838 0.11532503 -4.571996
000210 f0 1a 09 c0 54 0c 74 3d 5c 89 c3 bf 6b e9 eb bf
       -2.1422691 0.05958207 -1.5276294 -1.8430609
000220 19 34 68 c0 b6 5e 77 c0 11 46 94 40 99 0d b0 40
       -3.6281798 -3.8651557 4.633553 5.50166
000230 f7 68 58 be 42 00 22 c0 de b9 07 c0 fb 4d 6d bf
       -0.21133791 -2.5312657 -2.1207194 -0.92697114
000240 50 e5 16 be 59 b7 80 bd c0 51 9b c0 0f 9f 23 c0
       -0.14735913 -0.06284971 -4.8537292 -2.5565832
000250 ca ea 8b c0 56 2c 0c be a0 bb 45 c0 6e cf 6d c1
       -4.372411 -0.13688788 -3.0895767 -14.863142
000260 d9 03 86 c0 2f 7d 07 3e 8c 39 e8 40 df aa df bf
       -4.1879697 0.13231348 7.257025 -1.7474021
000270 89 a5 55 c0 ef 06 4a bf eb c6 1d c1 11 c1 4a bc
       -3.3382285 -0.7891683 -9.861064 -0.012375132
000280 d5 5a 3b c1 50 62 d0 c0 bc 6b d3 3d 1c c8 08 c0
       -11.709676 -6.512001 0.10323283 -2.1372137
000290 7d 6c 0a 3f 86 8a 17 c0 db be 0f c0 8b 11 e8 3d
       0.5407179 -2.3678298 -2.246024 0.11331471
0002a0 91 29 05 c0 74 f2 8d be fe 2e 42 bf 4c 6e 30 c1
       -2.080662 -0.2772404 -0.75852954 -11.026928
0002b0 84 06 be 40 73 03 88 bd ea 35 81 bd 4c 58 c0 40
       5.9382954 -0.06641283 -0.063091114 6.0107784
0002c0 48 ea 78 c0 72 3b a2 c0 37 d7 22 be 19 85 31 c0
       -3.8892994 -5.0697565 -0.1590241 -2.7737486
0002d0 71 49 b9 bf b2 33 28 c0 1d c7 be c1 6e 9c 08 c1
       -1.4475538 -2.6281552 -23.847223 -8.538191
0002e0 4e e9 13 c0 89 73 48 bf 1e 1d 15 c0 2b 50 ae be
       -2.3111148 -0.7830129 -2.3299022 -0.34045538
0002f0 1d 11 47 c0 a3 12 97 c0 50 df f3 3f 65 a9 64 bf
       -3.1104195 -4.721025 1.9052525 -0.89320976
000300 9f c5 7b c0 e2 8b 31 bf d2 d8 4e be 90 8c 03 c0
       -3.9339368 -0.6935407 -0.20199898 -2.0554543
000310 66 51 ac 3e d4 26 36 be e6 6f 9a c0 13 da 81 c0
       0.33655852 -0.17788249 -4.8261595 -4.0578704
000320 f2 b6 1b c1 14 09 9a 3f 7a 02 25 3f e6 24 ba bd
       -9.732164 1.203402 0.64456904 -0.09089069
000330 1f 7c cc bd 2b 03 2c 3f 4c 97 03 be f5 06 5d 3f
       -0.09984612 0.67192334 -0.12850684 0.8633874
000340 b3 3a 24 c0 6c 61 53 3f 95 b2 45 be 09 2a 03 40
       -2.5660827 0.8257053 -0.19306405 2.0494406
000350 07 1c b8 3e fa ee d0 3f aa dc af bd 7f 9c ea 3e
       0.35958883 1.632293 -0.0858701 0.45822522
000360 a8 47 3b 40 7b 53 7f 3f 08 27 62 bd fe 79 aa 3e
       2.9262486 0.99736756 -0.055213004 0.33296198
000370 98 ce 43 3d e7 a0 67 c0 cf 71 f3 bf 68 55 f0 bf
       0.047804445 -3.6191957 -1.9019107 -1.8776064
000380 6d ea d3 3d dc a8 a3 3e aa 3c 0a 3f 09 3d 13 bf
       0.103474475 0.31964767 0.53998816 -0.5751501
000390 4c 69 72 bd 4c 47 9f 3f b2 8a 0e 3f 87 b8 32 3d
       -0.05918245 1.2443633 0.5568038 0.04363301
0003a0 15 be 2f 3f 98 35 9b bf 97 3b 88 3e 7a ec a1 3e
       0.6864942 -1.212573 0.26607963 0.3162573
0003b0 6a 6b 79 be 4f e6 ba be 59 2d 68 be e9 fb 83 3e
       -0.24357381 -0.36503837 -0.22673549 0.2577813
