pretrained/best_weights.gat.pt (torch, 102794 bytes, 16 tensors)

layers.0.att_src f4 [1, 1, 72]
0.021891354 -0.0036077455 -0.014632839 -0.039981697 -0.00878307 0.0014798571 0.019933715 -0.018003184
-0.08453378 0.030792214 -0.09540943 -0.0029833391 -0.06356623 -0.012181874 -0.087951005 -0.062007725
-0.24852747 0.02680237 -0.0022129333 0.036481213 -0.06994479 -0.03750304 -0.045308795 0.022231596
0.021756295 -0.013841403 0.11724132 0.00701819 0.040266838 -0.0094914595 -0.1156243 -0.05327473
-0.039726563 -0.0716286 -0.058992736 -0.0029761693 0.047691442 -0.28107762 0.03916226 -0.022388231
-0.093221955 -0.06340582 -0.032355607 -0.0560599 -0.04348997 -0.22698946 -0.07607453 0.042580854
-0.16660021 -0.1507489 0.04725569 0.006155185 -0.049410887 0.3059177 0.05295136 -0.028593475
-0.076788165 -0.08308744 -0.028226802 0.006541632 -0.06544374 -0.045672983 -0.026508464 -0.01113723
-0.020914473 -0.017374445 0.049278982 -0.017921316 -0.09688223 -0.08702135 -0.10769796 -0.05087736
00000000: 7f55 b33c ed6f 6cbb 93be 6fbc d9c3 23bd
00000010: dee6 0fbc c4f7 c13a 084c a33c 6a7b 93bc
00000020: 0c20 adbd f43f fc3c 0566 c3bd 2084 43bb
00000030: 032f 82bd 7c96 47bc a81f b4bd d0fb 7dbd
00000040: fc7d 7ebe a590 db3c dc06 11bb 536d 153d
00000050: 373f 8fbd ca9c 19bd b795 39bd 091f b63c
00000060: 423a b23c 0dc7 62bc 381c f03d d8f8 e53b
00000070: d7ee 243d 1182 1bbc 6fcc ecbd 9a36 5abd
00000080: 52b8 22bd 04b2 92bd 5ea2 71bd d60b 43bb
00000090: 1a58 433d 68e9 8fbe 9b68 203d 8667 b7bc
000000a0: 27eb bebd e9da 81bd 5087 04bd 119f 65bd
000000b0: 8a22 32bd ed6f 68be f7cc 9bbd 4369 2e3d
000000c0: 3f99 2abe eb5d 1abe 2f8f 413d 6fb1 c93b
000000d0: 1263 4abd 3fa1 9c3e 86e3 583d dd3c eabc
000000e0: 1d43 9dbd bf29 aabd e53b e7bc 305b d63b
000000f0: 5e07 86bd 9813 3bbd 4728 d9bc ee78 36bc
00000100: d454 abbc da54 8ebc c2d8 493d b9cf 92bc
00000110: 316a c6bd 4038 b2bd c090 dcbd c764 50bd

layers.0.att_dst f4 [1, 1, 72]
-0.06341646 -0.026539637 0.0997663 0.012941874 0.04284516 0.1990348 -0.21799879 0.14393374
0.061970066 -0.17168552 -0.093673885 -0.047020692 -0.020353915 1.00419 0.16126813 0.052308995
0.46495724 0.04672991 0.14169692 0.117914915 0.1959281 0.06540632 0.12699957 -0.07550833
-0.056577634 0.12918544 0.10302591 0.26600108 0.032389194 0.0067063794 -0.034853477 0.09241889
0.29936194 0.11480362 0.10177503 -0.0025091458 0.2423215 0.22282034 -0.046104424 -0.12653148
0.13490205 0.3439481 0.23191433 -0.039979998 0.049022123 0.35869837 0.1361393 -0.074907884
0.18802544 0.05357893 0.051387344 0.23673645 0.03367805 -0.34605175 -0.023224732 0.06752486
0.18169188 0.21102127 0.06866703 -0.001636252 0.12638058 -0.14456171 -0.0031977615 0.10824672
-0.11908821 -0.08093355 0.0429142 0.30443963 0.055153333 0.010197321 0.21173385 -0.08163548
00000000: 7de0 81bd a769 d9bc 4652 cc3d 270a 543c
00000010: 687e 2f3d c7cf 4b3e 133b 5fbe 5e63 133e
00000020: 53d4 7d3d 54ce 2fbe 18d8 bfbd c598 40bd
00000030: 41bd a6bc 4c89 803f 7923 253e f541 563d
00000040: e00e ee3e dd67 3f3d ff18 113e 607d f13d
00000050: 60a1 483e c0f3 853d 2d0c 023e 1ca4 9abd
00000060: f3bd 67bd 3049 043e 40ff d23d 4b31 883e
00000070: 88aa 043d 30c1 db3b 85c2 0ebd 1d46 bd3d
00000080: f845 993e 291e eb3d 6d6f d03d 7b70 24bb
00000090: 2123 783e 042b 643e fed7 3cbd 7891 01be
000000a0: c323 0a3e f719 b03e f37a 6d3e 11c2 23bd
000000b0: 6ccb 483d 50a7 b73e 1a68 0b3e 4e69 99bd
000000c0: be89 403e 9575 5b3d 897b 523d 0a6b 723e
000000d0: fff1 093d b22d b1be cb41 bebc 794a 8a3d
000000e0: 700d 3a3e f615 583e 4da1 8c3d 8277 d6ba
000000f0: e969 013e fc07 14be 8991 51bb 75b0 dd3d
00000100: 85e4 f3bd 7dc0 a5bd cdc6 2f3d 83df 9b3e
00000110: 76e8 613d aa12 273c c2d0 583e 8130 a7bd

layers.0.bias f4 [72]
0.73134416 -0.2561668 -0.15690891 0.50200063 0.5990329 -0.47532573 -0.8520799 -0.73031116
-0.2674166 -0.13971283 -0.7986888 -0.2735866 0.16330071 1.8623385 -0.29561815 -0.20666136
-0.23220336 -0.09005751 0.16787915 0.96442485 0.771734 -0.37829572 0.037597567 -0.34834972
-0.6566295 -0.095489666 -0.5911039 -0.19752456 -0.6776435 1.217975 -0.40329674 0.5490394
-0.44200683 -0.3363568 -0.64999145 1.0130265 0.9532928 -0.23159495 -0.6265361 -0.45619276
-1.2097187 -0.4401364 0.46077013 0.42271546 0.7841852 1.4493109 -0.5230364 -0.8065748
-0.16841744 0.5602867 -0.29934368 -0.2664448 0.3025689 -0.46913898 -0.495719 0.30357698
0.56087464 -0.6566729 0.39338088 -0.20828186 -0.48797336 0.3022211 0.99530286 -0.84376454
-0.9159975 0.3638014 -0.24565601 -0.64349866 1.2863882 0.11435726 0.14470917 0.56868464
00000000: 5f39 3b3f 4b28 83be bbac 20be 1d83 003f
00000010: 385a 193f e55d f3be e921 5abf acf5 3abf
00000020: d4ea 88be e110 0fbe df76 4cbf 8b13 8cbe
00000030: 4d38 273e 1c61 ee3f 435b 97be 099f 53be
00000040: b8c6 6dbe 1270 b8bd 83e8 2b3e 8ce4 763f
00000050: 5c90 453f faaf c1be e8ff 193d e55a b2be
00000060: df18 28bf 1690 c3bd 9652 17bf e143 4abe
00000070: 0b7a 2dbf 9be6 9b3f e97c cebe d98d 0c3f
00000080: b84e e2be f536 acbe d765 26bf daaa 813f
00000090: ff0a 743f 3a27 6dbe ab64 20bf 1992 e9be
000000a0: 10d8 9abf 8f59 e1be 10ea eb3e 296e d83e
000000b0: 5cc0 483f 0583 b93f b7e5 05bf b07b 4ebf
000000c0: 9f75 2cbe f36e 0f3f 9343 99be 746b 88be
000000d0: 50ea 9a3e fc32 f0be e1ce fdbe 716e 9b3e
000000e0: 7b95 0f3f b71b 28bf 3869 c93e d747 55be
000000f0: a5d7 f9be b9bc 9a3e 2bcc 7e3f f400 58bf
00000100: d07e 6abf 2d44 ba3e 408d 7bbe 54bc 24bf
00000110: 5ea8 a43f 2434 ea3d a42e 143e 5195 113f

layers.0.lin.weight f4 [72, 290]
1.1234478 -1.9456168 -0.31848574 0.50365293 0.28021836 0.29604664 1.2988019 0.054993004
-0.48120487 1.2129657 0.8999373 -0.5513946 -0.15615103 -1.6449873 0.13496335 0.21368457
0.27924877 -1.5574174 0.036466215 -0.3954019 -1.6236528 0.6699557 1.7390589 -0.4036602
0.051996984 -0.019157417 0.82589906 -0.7204147 0.017692182 -0.09638096 -0.5292051 0.05180239
-0.029686317 -0.45798257 -0.35479045 0.16914576 -0.46923798 -0.9938971 -0.21452536 0.29938477
-0.6285578 -1.2724606 -0.26225415 -0.11500543 0.10628085 0.025620915 -0.9817565 1.5714629
0.6525427 0.1000842 0.012417257 -0.83203644 0.43543574 0.55153364 0.04935606 0.021497145
-0.4485572 -1.0257937 -2.568089 1.8820742 -0.6934785 -0.39672762 0.057552308 -1.3059042
2.9035344 0.95616484 0.074061066 0.059442654 0.27020538 0.3540169 0.1973988 1.5880185
-0.011080505 1.2927887 0.66931033 2.0838525 0.9909306 0.65851444 0.4131128 0.53955746
-0.015607211 0.22677404 1.2123842 -0.56763303 -0.20066214 1.5335218 0.80218786 -0.15242864
-0.1286426 -1.8389801 -0.7954273 -0.7656776 -0.49573338 -0.55393875 1.4098723 -0.24905157
-0.40931866 0.06767379 -3.5338209 -0.015838712 0.08408779 -0.049418733 0.12464206 -1.4450808
-1.7679031 -2.6570704 -1.6024649 -1.9989661 -2.1978498 -2.3194652 -1.0140216 -1.5559607
-1.6691247 -0.010998718 -0.0020753741 -0.0996525 0.033825353 -0.018877551 -0.041588567 0.11820994
0.09691757 -0.001377523 -0.098221004 0.08935167 0.12247978 0.07697025 -0.035972334 0.036295295
0.070718035 0.055228695 0.0055469424 -0.031504594 -0.10939269 -0.06512351 0.05456601 0.11807935
0.064173 -0.06316459 -0.04178483 -0.019475102 0.061800033 0.008887008 -0.07551562 -0.054357044
0.025143862 0.42467302 -3.963368 -1.3249583 1.0843596 0.899591 -0.31507114 1.2311381
-0.010300145 0.12851775 -0.6500451 -1.042964 0.43284586 -0.93913496 -1.2942499 -0.26713777
-0.78314215 0.15457788 0.41587013 0.5840155 -0.80127877 0.24634962 -0.5342078 0.4479211
0.714957 -0.0077175815 -1.3077347 -0.058199663 -1.1399484 -0.64874804 -0.10440378 -1.7201761
-0.55570585 -1.0654886 -0.19265376 -0.16957672 -1.8536433 -1.4585893 0.15897208 -0.157429
0.3187462 0.44535255 0.65241873 -0.26797467 0.09480031 0.09405695 -0.6482893 -0.0082131745
-0.5423142 -0.49169657 0.028845295 0.010951787 -2.1647553 -0.13024347 0.44445693 0.11796379
0.059688926 -1.6397799 -0.68681616 -1.6226646 0.15431911 -0.39466977 -1.8522989 0.060575098
-0.3505193 0.74390817 -2.0736406 -0.11546472 -0.059420623 1.4374161 -0.061544668 0.52124286
2.4707103 0.0626221 -0.044293538 0.7218651 2.0929196 2.5328615 2.6290638 1.8055718
0.7129554 1.36061 1.5498812 1.5689929 0.7181595 0.60894924 0.13354763 0.2626926
-1.2960105 0.43323225 -1.5854131 -0.4876988 -2.3807485 -0.8982086 0.6094623 0.88062197
-0.79737496 -1.981172 -1.1682236 -2.4025373 0.011853814 0.042990774 -0.038248494 -0.016157277
-1.0766581 -1.789774 -1.1182483 -3.140216 -2.1250114 -3.3509164 -2.631766 -0.68007696
00000000: 23cd 8f3f f909 f9bf 9010 a3be 66ef 003f
00000010: c878 8f3e 6d93 973e 243f a63f 5840 613d
00000020: 7c60 f6be 7642 9b3f 4a62 663f 3228 0dbf
00000030: 0ee6 1fbe f28e d2bf d533 0a3e 21d0 5a3e
00000040: b2f9 8e3e 7459 c7bf 995d 153d 1e72 cabe
00000050: dbd3 cfbf 3782 2b3f 7b99 de3f 8dac cebe
00000060: cafa 543d 04f0 9cbc 1f6e 533f 196d 38bf
00000070: 32ef 903c 6163 c5bd fc79 07bf be2e 543d
00000080: b830 f3bc b17c eabe 18a7 b5be 8c34 2d3e
00000090: f63f f0be 0a70 7ebf 89ac 5bbe f648 993e
000000a0: 2ae9 20bf fddf a2bf 2d46 86be f887 ebbd
000000b0: c6a9 d93d f4e2 d13c 6554 7bbf b225 c93f
000000c0: 0a0d 273f f2f8 cc3d c071 4b3c 5700 55bf
000000d0: 6ff1 de3e 4f31 0d3f 9429 4a3d c81a b03c
000000e0: 4aa9 e5be 354d 83bf 925b 24c0 cfe7 f03f
000000f0: cf87 31bf e21f cbbe f8bb 6b3d de27 a7bf
00000100: 82d3 3940 38c7 743f 54ad 973d 247a 733d
00000110: 5c58 8a3e b441 b53e e922 4a3e 3144 cb3f
00000120: 028b 35bc 1a7a a53f ec57 2b3f d75d 0540
00000130: a1ad 7d3f 6794 283f 8583 d33e 7020 0a3f
00000140: 63b5 7fbc 7437 683e 682f 9b3f 6650 11bf
00000150: 607a 4dbe 714a c43f 2f5c 4d3f 4116 1cbe
00000160: e3ba 03be b363 ebbf 20a1 4bbf 7203 44bf
00000170: c4d0 fdbe eece 0dbf b276 b43f 6007 7fbe
00000180: 3792 d1be 8e98 8a3d 1f2a 62c0 30c0 81bc
00000190: 3836 ac3d 4c6b 4abd 5644 ff3d 68f8 b8bf
000001a0: a64a e2bf 710d 2ac0 921d cdbf 1fde ffbf
000001b0: 92a9 0cc0 1e72 14c0 76cb 81bf b829 c7bf
000001c0: e1a5 d5bf f833 34bc 0003 08bb 9c16 ccbd
000001d0: 748c 0a3d 18a5 9abc c658 2abd 0e18 f23d
000001e0: b87c c63d 008e b4ba 1828 c9bd 02fe b63d
000001f0: aed6 fa3d 94a2 9d3d ba57 13bd 60aa 143d
00000200: 9ed4 903d 7c37 623d 20c3 b53b f60a 01bd
00000210: 4609 e0bd 7a5f 85bd 9c80 5f3d 96d3 f13d
00000220: 226d 833d 705c 81bd 9226 2bbd 408a 9fbc
00000230: 0822 7d3d d09a 113c efa7 9abd 7ea5 5ebd
00000240: 80fa cd3c be6e d93e d2a7 7dc0 3c98 a9bf
00000250: 4ccc 8a3f 994b 663f 0151 a1be ef95 9d3f
00000260: f0c1 28bc 289a 033e 5b69 26bf d87f 85bf
00000270: f99d dd3e 266b 70bf fba9 a5bf 48c6 88be
00000280: 017c 48bf aa49 1e3e eeec d43e 0a82 153f
00000290: 9b20 4dbf 1343 7c3e d8c1 08bf ea55 e53e
000002a0: 6c07 373f c4e3 fcbb da63 a7bf c562 6ebd
000002b0: d4e9 91bf 5a14 26bf a6d1 d5bd bb2e dcbf
000002c0: bd42 0ebf ee61 88bf 0747 45be 85a5 2dbe
000002d0: 2f44 edbf 0eb3 babf 94c9 223e 1135 21be
000002e0: b432 a33e 4005 e43e ea04 273f fa33 89be
000002f0: aa26 c23d eea0 c03d 4af6 25bf 8d90 06bc
00000300: 1ad5 0abf a7bf fbbe f84c ec3c 206f 333c
00000310: 5a8b 0ac0 8b5e 05be dc8f e33e 0097 f13d
00000320: 607c 743d 4fe4 d1bf 2fd3 2fbf 79b3 cfbf
00000330: d405 1e3e 2812 cabe 2118 edbf 981d 783d
00000340: 4477 b3be c470 3e3f 87b6 04c0 c478 ecbd
00000350: 0a63 73bd 40fd b73f 4316 7cbd 2c70 053f
00000360: 1e20 1e40 0440 803d 246d 35bd 27cc 383f
00000370: 65f2 0540 671a 2240 9542 2840 fa1c e73f
00000380: 3f84 363f 7828 ae3f 8262 c63f c2d4 c83f
00000390: 4dd9 373f 19e4 1b3f b6c0 083e a57f 863e
000003a0: ace3 a5bf 9ed0 dd3e d1ee cabf a8b3 f9be
000003b0: 2f5e 18c0 00f1 65bf b905 1c3f 7170 613f
000003c0: c420 4cbf 0b97 fdbf 5a88 95bf 2cc3 19c0
000003d0: 8036 423c 1817 303d 74aa 1cbd 445c 84bc
000003e0: efcf 89bf 5017 e5bf c322 8fbf 4df9 48c0
000003f0: 3000 08c0 6a75 56c0 db6e 28c0 8619 2ebf

layers.1.att_src f4 [1, 1, 32]
-0.09269666 0.03423484 0.060036868 0.1415619 -0.019032583 0.3186761 0.02618225 -0.016218096
0.018234814 -0.074384935 -0.043127347 -0.01361965 -0.14435726 -0.0011396566 -0.5317884 0.016666878
0.0015871488 0.4712115 -0.07260139 -0.052141048 -0.027809516 0.00061007583 0.2656212 -0.12981348
0.025012273 0.09630037 0.5379217 -0.01465226 -0.072871886 -0.10101951 -0.08045566 -0.11623381
00000000: bfd7 bdbd d539 0c3d 38e9 753d 9af5 103e
00000010: 38ea 9bbc 8429 a33e 287c d63c d0db 84bc
00000020: 2d61 953c 2157 98bd 4da6 30bd f424 5fbc
00000030: 64d2 13be 8860 95ba 4923 08bf fa88 883c
00000040: e007 d03a a242 f13e 0ab0 94bd da91 55bd
00000050: c8d0 e3bc 7fed 1f3a 80ff 873e d3ed 04be
00000060: 8ae6 cc3c 2139 c53d 3db5 093f 0810 70bc
00000070: db3d 95bd 51e3 cebd f0c5 a4bd fe0b eebd

layers.1.att_dst f4 [1, 1, 32]
0.14192182 -0.18944688 0.37486386 -0.18206465 -0.114566855 -0.03424512 0.011251979 -0.011807855
-0.21755193 0.06706163 -0.05492824 -0.43413815 0.36045438 0.0072191088 -0.15042064 -0.058585133
0.099672906 -0.7889867 0.040061563 0.13016751 0.06367489 0.0004782594 -0.4024589 0.062535696
0.039596204 0.35568002 -0.7128691 0.32438272 0.3194303 0.31022552 0.114384435 0.14769521
00000000: f453 113e 5dfe 41be 28ee bf3e 286f 3abe
00000010: 07a2 eabd 9c44 0cbd 385a 383c bc75 41bc
00000020: efc5 5ebe 9c57 893d 6ffc 60bd 5b47 debe
00000030: 7a8d b83e 468e ec3b de07 1abe f7f6 6fbd
00000040: 4f21 cc3d 08fb 49bf 9817 243d a24a 053e
00000050: fb67 823d e4be fa39 180f cebe b712 803d
00000060: a12f 223d b11b b63e 977e 36bf 7e15 a63e
00000070: 5e8c a33e e1d5 9e3e 6342 ea3d 6a3d 173e

layers.1.bias f4 [32]
1.0935681 0.50534046 0.59943384 -1.8375274 -3.2418065 -0.044719942 -0.9223431 -1.6177726
-2.5331848 -2.6077948 -2.5133133 0.7655826 0.79586655 -3.1110935 0.7082109 -1.2473369
-0.6073862 0.9786052 -1.7707205 -1.3959844 -0.57107824 -1.7254579 -0.014640965 -2.3209631
-2.4503677 0.6033019 0.5704779 -1.3775814 -0.3728188 -1.7090427 0.08368777 -0.10518309
00000000: 0afa 8b3f fe5d 013f 7f74 193f 1934 ebbf
00000010: c279 4fc0 422c 37bd ad1e 6cbf 2c13 cfbf
00000020: b31f 22c0 1ce6 26c0 20da 20c0 39fd 433f
00000030: e9bd 4b3f 281c 47c0 4f4d 353f bca8 9fbf
00000040: a97d 1bbf df85 7a3f f8a6 e2bf 9eaf b2bf
00000050: 2f32 12bf cedb dcbf a8e0 6fbc a98a 14c0
00000060: d3d2 1cc0 fe71 1a3f d70a 123f 9654 b0bf
00000070: 1be2 bebe e9c1 dabf 7e64 ab3d 3b6a d7bd

layers.1.lin.weight f4 [32, 72]
-0.06335625 1.3555961 -0.9652389 -0.61771166 0.19042456 -1.0464615 0.7868788 0.085748345
0.11098363 1.2355627 -0.19095519 -1.75668 -0.46774065 -0.14433974 -0.5755044 1.5196886
-1.6462975 -0.17589551 -1.3718635 -0.34011897 -1.5797601 -0.8249928 0.019871376 -0.007496518
-0.72591317 0.57242674 0.30825397 -0.360613 0.100978576 -0.27717325 0.24472181 -0.022055255
-0.23507658 -0.77636766 -2.398104 -0.83377343 0.09216271 0.047643896 0.9718001 0.089177124
0.3242222 2.1355283 -0.0220176 0.8934955 0.41807556 0.43680143 0.66253126 -0.14055741
1.0075908 -0.57289076 0.39429834 -1.2453339 -0.048646662 0.4149371 -0.5492591 0.59499073
-0.0043356745 -2.0276444 0.19372776 -0.8343454 -1.2466403 -0.059200976 0.064633176 -1.9388133
0.96755075 -0.017391346 -0.053429242 -1.775003 0.38068137 -0.38676345 -0.98112845 -0.3001369
-0.30544633 -1.1240659 -0.49055013 0.2165297 0.06952766 -0.020061396 0.7366308 -0.62910587
-0.91252506 1.1402345 1.3132298 0.22301568 0.42119548 0.110942654 -0.8595219 -0.5083266
-0.32180446 -0.85449106 0.31022325 0.0070731165 -0.43382475 -1.9508 -0.7719099 1.0272104
0.13030243 0.6031072 0.056189433 -0.9080572 1.7428586 -0.12894104 -1.3310978 0.21344514
-2.234466 -0.82853514 1.3092494 -0.1554939 -0.43549493 -1.2003953 0.2851676 -0.51864624
0.23061076 -0.9603996 -0.12651464 -0.73111916 -0.4916897 0.06889119 1.0915238 -0.51247823
-1.213483 -0.6220299 0.10625653 -0.23404029 0.032334104 -0.118839614 -0.88614786 0.36341602
-0.50423557 1.6425518 -0.80561745 -0.15382612 -1.2451296 0.4035752 0.071146116 -0.07440894
1.1568931 -1.2845955 -0.68892455 2.2933915 0.04890673 -0.15146615 1.4228888 -0.37471294
-0.33764586 -0.3136224 0.46322376 0.7679218 0.53100413 -1.0737313 -0.1302211 -2.7042282
0.8809069 -1.1836689 -2.195741 0.34090462 -0.031161217 -0.21425816 -1.1492482 -0.9087433
1.2154187 0.18475729 0.68295634 0.1809987 0.0100918235 -1.5720135 0.62630254 0.7095953
0.0055388627 0.607245 -0.9510945 -1.0318366 -1.4369274 -0.138433 0.2391304 0.94169295
-1.3531114 0.5327986 -2.0748525 -0.06825231 0.2794822 0.09608692 -0.7525532 -0.2032539
1.065437 -0.30466065 -0.07092411 0.3979107 0.107469164 -0.068868816 0.5817134 -0.47013107
-0.81101865 0.021399116 -2.288697 -1.6567506 0.14744088 -0.7788892 -2.7878911 0.3311452
0.75698024 -3.3551118 0.101557225 -0.66747785 -2.2956254 0.2676398 -0.057277523 -1.9293988
0.04544997 0.4663066 1.1261431 0.584289 -0.3896859 0.5908552 -0.31614244 0.2187033
-1.2386198 0.36547768 0.5822673 0.39192206 0.29761297 -4.2547655 1.1635613 0.6201831
1.4419748 -0.99781466 -3.249062 -1.5532906 -0.23653054 -0.47893852 0.21347369 -2.4875062
1.1729923 0.84801114 -0.53594136 0.41702175 -0.10997182 1.1201015 -0.15024373 -0.72385365
-1.7773429 -0.6960035 0.16073343 -4.353463 -1.4254105 -0.06716666 0.0008653018 -1.1314509
-1.6685337 0.21759158 -4.1999755 -0.1652072 0.011771037 0.1407081 0.7763442 -0.5787799
00000000: ecc0 81bd 2c84 ad3f e619 77bf 5a22 1ebf
00000010: a8fe 423e 73f2 85bf e470 493f d49c af3d
00000020: 634b e33d eb26 9e3f c289 43be e4da e0bf
00000030: b47b efbe cccd 13be 4254 13bf 2885 c23f
00000040: e0b9 d2bf f41d 34be 3999 afbf 1324 aebe
00000050: 9435 cabf ba32 53bf 4cc9 a23c 5aa5 f5bb
00000060: 72d5 39bf 8f8a 123f 77d3 9d3e 44a2 b8be
00000070: dbcd ce3d a7e9 8dbe 5b98 7a3e 39ad b4bc
00000080: eab7 70be 08c0 46bf 897a 19c0 2d72 55bf
00000090: cebf bc3d 3f26 433d e4c7 783f 7fa2 b63d
000000a0: 7400 a63e 7fac 0840 415e b4bc 1fbc 643f
000000b0: 000e d63e 70a4 df3e a69b 293f 48ee 0fbe
000000c0: bcf8 803f f8a8 12bf 79e1 c93e 1a67 9fbf
000000d0: b941 47bd a372 d43e 3f9c 0cbf 5051 183f
000000e0: 4612 8ebb edc4 01c0 9260 463e a997 55bf
000000f0: e991 9fbf b97c 72bd 665e 843d 092b f8bf
00000100: 68b1 773f 4c78 8ebc 9fd8 5abd 4c33 e3bf
00000110: abe8 c23e dc05 c6be 3c2b 7bbf 8bab 99be
00000120: 7663 9cbe 64e1 8fbf 6329 fbbe f6b9 5d3e
00000130: 8564 8e3d cc57 a4bc d693 3c3f 150d 21bf
00000140: 3e9b 69bf 34f3 913f ea17 a83f 395e 643e
00000150: efa6 d73e e735 e33d a109 5cbf b121 02bf
00000160: 8ec3 a4be edbf 5abf 95d5 9e3e 9ac5 e73b
00000170: 471e debe d0b3 f9bf e39b 45bf a17b 833f
00000180: 006e 053e 3c65 1a3f e426 663d 7076 68bf
00000190: fe15 df3f 1f09 04be 6a61 aabf 5d91 5a3e
000001a0: 7e01 0fc0 e11a 54bf 7c95 a73f cb39 1fbe
000001b0: 31f9 debe 8ea6 99bf 7d01 923e 00c6 04bf
000001c0: 3a25 6c3e c0dc 75bf 0e8d 01be a02a 3bbf
000001d0: c1be fbbe d316 8d3d 0db7 8b3f c631 03bf
000001e0: 6953 9bbf 5a3d 1fbf 069d d93d 42a8 6fbe
000001f0: c470 043d 2f62 f3bd 96da 62bf aa11 ba3e
00000200: 9515 01bf 233f d23f f23c 4ebf 9884 1dbe
00000210: 6860 9fbf 69a1 ce3e 0eb5 913d b763 98bd
00000220: 1315 943f a06d a4bf 5c5d 30bf edc6 1240
00000230: 6c52 483d f119 1bbe 3821 b63f 60da bfbe
00000240: ebdf acbe 1d93 a0be aa2b ed3e 8696 443f
00000250: e3ef 073f 0770 89bf ae58 05be 1312 2dc0
00000260: 1d83 613f 7682 97bf 0587 0cc0 0d8b ae3e
00000270: cf45 ffbc 7e66 5bbe 911a 93bf 67a3 68bf
00000280: d792 9b3f 0431 3d3e 3ad6 2e3f b957 393e
00000290: 2d58 253c bd37 c9bf 5d55 203f 0aa8 353f
000002a0: 597f b53b 6974 1b3f ee7a 73bf 3913 84bf
000002b0: 3ded b7bf 61c1 0dbe 99de 743e ca12 713f
000002c0: c132 adbf 7d65 083f 62ca 04c0 dec7 8bbd
000002d0: 4a18 8f3e 38c9 c43d 54a7 40bf ca21 50be
000002e0: 3d60 883f 7bfc 9bbe a940 91bd f4ba cb3e
000002f0: cb18 dc3d 180b 8dbd 2beb 143f 05b5 f0be
00000300: eb9e 4fbf 334d af3c 037a 12c0 6710 d4bf
00000310: befa 163e 4865 47bf cf6c 32c0 dd8b a93e
00000320: 75c9 413f 27ba 56c0 3cfd cf3d d4df 2abf
00000330: 87eb 12c0 1508 893e d69b 6abd 8af6 f6bf
00000340: bf29 3a3d bdbf ee3e 7525 903f f793 153f
00000350: e984 c7be 4942 173f 6cdd a1be c2f3 5f3e
00000360: 188b 9ebf e41f bb3e 780f 153f 02aa c83e
00000370: ba60 983e 0a27 88c0 94ef 943f 52c4 1e3f
00000380: a192 b83f c870 7fbf a2f0 4fc0 3ad2 c6bf
00000390: 1035 72be 6e37 f5be d998 5a3e 4d33 1fc0
000003a0: 9d24 963f 4217 593f 7433 09bf e083 d53e
000003b0: e838 e1bd 7c5f 8f3f 7ed9 19be 794e 39bf
000003c0: f97f e3bf 492d 32bf 4e97 243e 924f 8bc0
000003d0: da73 b6bf ad8e 89bd 6cd5 623a 62d3 90bf
000003e0: 8392 d5bf 54d0 5e3e 3366 86c0 142c 29be
000003f0: 4fdb 403c c915 103e 7ebe 463f eb2a 14bf

layers.2.att_src f4 [1, 1, 16]
-0.07001309 0.31067494 0.2758974 -0.30530003 -0.50873715 1.0059409 -0.30773422 0.082956776
0.97512084 -0.05886231 0.51680714 2.5521173 -0.35008484 0.84243715 0.68361217 0.26216078
00000000: 0663 8fbd c910 9f3e 6d42 8d3e 4950 9cbe
00000010: 993c 02bf acc2 803f 578f 9dbe 3ee5 a93d
00000020: 85a1 793f 9b19 71bd 794d 043f e455 2340
00000030: 523e b3be f6a9 573f 3501 2f3f f039 863e

layers.2.att_dst f4 [1, 1, 16]
1.0663434 1.0127 1.1105957 0.8106667 0.32364565 0.73702604 -0.46773618 0.07230875
0.086449765 1.164511 0.9314331 -1.1179559 0.7518716 0.8607974 0.6378726 0.22460791
00000000: f17d 883f 27a0 813f 0028 8e3f da87 4f3f
00000010: e2b4 a53e bdad 3c3f 1e7b efbe 9c16 943d
00000020: 930c b13d b20e 953f 6672 6e3f 2e19 8fbf
00000030: a87a 403f 385d 5c3f 9e4b 233f 9eff 653e

layers.2.bias f4 [16]
-0.60310215 -0.7914814 -0.33693776 -1.1492724 -0.9992294 -2.1300883 0.8481138 -0.8790195
0.86862427 -1.9506942 -2.1739674 -1.858482 0.69222546 -0.65661496 -1.5823547 -0.61892754
00000000: e764 1abf 869e 4abf 1b83 acbe 5c1b 93bf
00000010: 7fcd 7fbf 5e53 08c0 fc1d 593f 6c07 61bf
00000020: 295e 5e3f 59b0 f9bf 4822 0bc0 bde2 edbf
00000030: b035 313f eb17 28bf 998a cabf 0972 1ebf

layers.2.lin.weight f4 [16, 32]
-0.30978563 -0.5265216 -0.18928495 -0.14027318 -0.5230177 -0.00078550226 0.009404838 -0.276591
-0.8110578 -0.3471215 -0.034668263 -0.3775375 -0.49274826 -0.029195823 -0.58733815 -0.03182429
0.20794499 0.07319951 0.5506763 -1.1154127 -0.6381063 0.99731386 -0.11607278 -1.3658919
-0.6544699 -0.52886397 -0.27851552 -0.22985946 -0.33389238 -0.48571154 -0.4063342 -1.099078
-1.7266551 0.086739 -0.59079444 0.28601003 0.5247221 -1.174717 -0.49013522 -1.0793073
-1.6910447 0.22589208 1.1475724 -0.45333424 -0.35398492 0.20154297 -1.3281715 -0.54097193
-1.6529334 -0.49436992 -0.14823161 -0.40974644 1.0298662 0.06291339 0.54071885 -0.45548052
-0.018402712 -1.1339128 0.43802807 -0.085422695 0.14935853 -0.28314435 -0.7151087 -0.48474503
-0.09506479 -0.90675014 -1.1205256 1.0174042 -0.46007994 0.18972719 0.22490615 0.39576235
0.88724375 1.3786542 0.5259994 -2.5884752 0.38296965 0.5822895 -0.029920826 -0.17197596
-0.7283606 -0.4381531 -0.31052914 0.29650423 -0.22187078 -1.1787972 0.15706694 0.41936365
0.59361565 -0.8886633 -0.7295011 -0.113538295 0.06326914 0.6028789 0.010451345 -0.8035821
0.15069658 -0.7967532 0.20633367 -0.7780259 -0.3969717 -0.7398461 -0.33132723 -0.49316046
-0.35528567 -1.2187009 -0.1573125 -0.06786276 -1.651089 -0.79514724 -0.8826416 -0.16100536
0.23579115 -0.544802 0.8462585 -1.8442386 -0.67055124 0.9337628 -0.73073035 -1.8846108
-0.89279884 -0.2986671 -0.06265569 -0.1227351 -0.5101302 -0.66212523 -1.0579853 -1.287753
-0.033821583 -1.2138177 -0.17712891 0.037181534 0.08864881 -0.9178106 -0.53223777 -0.55502695
-1.3703018 -0.22628951 -0.17693716 -0.15504329 -0.17288089 -0.7884669 0.11152593 -0.67387545
0.29767123 0.35619542 2.4629884 -1.223949 -0.59144974 0.21322657 -0.09259771 -1.0518095
1.0557439 -0.8028598 -0.14574765 -0.15770257 -1.1540631 -0.8442243 0.079212055 -1.1879035
-0.9933439 -0.36044577 -1.3528699 0.3008441 -0.08435671 0.23468374 0.46079275 -0.47761413
0.16354279 0.7040244 0.05488496 -2.2511613 -0.28175378 0.6041577 0.37839094 -0.46662024
-1.2870042 -0.9191867 -0.017471807 0.81904864 0.40495232 -1.6825945 0.6937552 1.1742662
0.7641707 -0.803888 -1.2543309 -1.2282175 0.9260389 0.18854247 -0.63411945 -0.35438722
-0.91815114 0.7247116 -0.4333666 -0.7607091 -0.11294608 -0.06467602 0.032228082 0.624759
-1.0465972 -0.5513095 -0.123313986 -1.3199518 -1.8535398 -1.7203774 -0.12614915 -1.033423
-0.27382898 -0.19149908 0.70108163 -2.0413806 0.8714891 0.6678313 -1.0538995 0.2289978
0.11143578 -0.29039478 -0.51755905 -0.32174042 -1.0541229 -0.7543119 -1.6497431 -0.88194185
-1.1016644 -0.36075258 -1.0934218 0.103252985 -0.2404068 -1.0878348 -0.4772081 -0.23620903
0.56139785 0.29793504 0.67280364 -0.48611253 0.053609252 0.45889866 0.4256694 -0.59702814
-1.2093489 -0.41265184 1.501582 0.12081718 -0.5554623 -0.94853264 -0.03460445 -0.39948314
0.6307213 -0.74794775 -0.42081273 -0.38713735 -0.55077744 0.7061237 0.077892646 -1.5022931
00000000: 399c 9ebe 1fca 06bf ead3 41be c6a3 0fbe
00000010: 7de4 05bf 2aea 4dba c016 1a3c 569d 8dbe
00000020: 7ca1 4fbf e9b9 b1be 4f00 0ebd 984c c1be
00000030: 8049 fcbe 142c efbc cb5b 16bf 305a 02bd
00000040: 88ef 543e a0e9 953d 1ff9 0c3f d8c5 8ebf
00000050: ef5a 23bf f64f 7f3f 91b7 edbd 8cd5 aebf
00000060: 578b 27bf a163 07bf 9699 8ebe 4760 6bbe
00000070: f1f3 aabe 2faf f8be 090b d0be 97ae 8cbf
00000080: 0903 ddbf 38a4 b13d 4e3e 17bf e86f 923e
00000090: 3054 063f 205d 96bf 01f3 fabe be26 8abf
000000a0: 2774 d8bf 4150 673e a7e3 923f 6d1b e8be
000000b0: 833d b5be 4861 4e3e 8601 aabf 237d 0abf
000000c0: 5293 d3bf 0e1e fdbe 07ca 17be 49ca d1be
000000d0: a8d2 833f bcd8 803d 8d6c 0a3f be34 e9be
000000e0: 49c1 96bc 0e24 91bf 3745 e03e 18f2 aebd
000000f0: 71f1 183e 4cf8 90be 5d11 37bf 8030 f8be
00000100: 54b1 c2bd c720 68bf 626d 8fbf 4d3a 823f
00000110: 998f ebbe d847 423e cc4d 663e 5da1 ca3e
00000120: 6822 633f be77 b03f e6a7 063f 94a9 25c0
00000130: 9914 c43e ed10 153f 851c f5bc 771a 30be
00000140: d775 3abf 9a55 e0be adfd 9ebe 67cf 973e
00000150: 1832 63be d4e2 96bf 28d6 203e d5b6 d63e
00000160: 32f7 173f 707f 63bf 96c0 3abf c486 e8bd
00000170: 4093 813d 4656 1a3f 1e3c 2b3c 8eb7 4dbf
00000180: 3450 1a3e 05f8 4bbf 2249 533e b52c 47bf
00000190: e03f cbbe 8e66 3dbf b9a3 a9be 877f fcbe
000001a0: 01e8 b5be 64fe 9bbf 8716 21be a1fb 8abd
000001b0: e256 d3bf c58e 4bbf cdf4 61bf 97de 24be
000001c0: 3c73 713e 2578 0bbf 66a4 583f 0310 ecbf
000001d0: 3fa9 2bbf 140b 6f3f 2511 3bbf ed3a f1bf
000001e0: 778e 64bf e5ea 98be a051 80bd 8a5c fbbd
000001f0: e597 02bf 0a81 29bf 106c 87bf 17d5 a4bf
00000200: 8088 0abd 615e 9bbf 4861 35be aa4b 183d
00000210: 828d b53d a3f5 6abf bc40 08bf 3f16 0ebf
00000220: 0d66 afbf 70b8 67be 042f 35be abc3 1ebe
00000230: b007 31be f7d8 49bf b567 e43d 1a83 2cbf
00000240: 5d68 983e 3f5f b63e 9aa1 1d40 5caa 9cbf
00000250: 4069 17bf 1158 5a3e dea3 bdbd b2a1 86bf
00000260: 9e22 873f 3888 4dbf df3e 15be c87c 21be
00000270: 57b8 93bf 151f 58bf ee39 a23d 390d 98bf
00000280: c94b 7ebf 598c b8be d72a adbf 3d08 9a3e
00000290: 36c3 acbd ef50 703e 07ed eb3e d789 f4be
000002a0: c377 273e f13a 343f 0dcf 603d 0713 10c0
000002b0: 0842 90be 14aa 1a3f 75bc c13e d9e8 eebe
000002c0: 8ebc a4bf d24f 6bbf 0921 8fbc 2cad 513f
000002d0: e955 cf3e 425f d7bf f199 313f 5b4e 963f
000002e0: b1a0 433f 9bcb 4dbf ea8d a0bf 3b36 9dbf
000002f0: e310 6d3f 4711 413e a755 22bf 3e72 b5be
00000300: f40b 6bbf b386 393f 3ae2 ddbe d5bd 42bf
00000310: 4650 e7bd dc74 84bd 9801 043d 35f0 1f3f
00000320: e6f6 85bf 9f22 0dbf 0b8c fcbd 2ef4 a8bf
00000330: cb40 edbf 5435 dcbf 3e2d 01be 3447 84bf
00000340: 5033 8cbe 5618 44be 167a 333f fba5 02c0
00000350: e919 5f3f fef6 2a3f 2ee6 86bf 667e 6a3e
00000360: 7138 e43d a0ae 94be c07e 04bf 29bb a4be
00000370: 80ed 86bf 961a 41bf c82a d3bf f1c6 61bf
00000380: 5703 8dbf 90b4 b8be 3ff5 8bbf 4d76 d33d
00000390: 332d 76be 2c3e 8bbf 9f54 f4be c8e0 71be
000003a0: c5b7 0f3f f18a 983e dc3c 2c3f bee3 f8be
000003b0: 6095 5b3d c4f4 ea3e 57f1 d93e d6d6 18bf
000003c0: f2cb 9abf 1a47 d3be d733 c03f ff6e f73d
000003d0: c732 0ebf 09d3 72bf 65bd 0dbd 0e89 ccbe
000003e0: f376 213f 8179 3fbf c474 d7be de36 c6be
000003f0: c0ff 0cbf 86c4 343f 2e86 9f3d 244b c0bf

predictor.att_src f4 [1, 1, 2]
-0.15222241 -0.25214618
00000000: 31e0 1bbe 4e19 81be

predictor.att_dst f4 [1, 1, 2]
-0.33450952 0.36478338
00000000: d544 abbe e3c4 ba3e

predictor.bias f4 [2]
1.6806885 -1.6807239
00000000: cd20 d73f f621 d7bf

predictor.lin.weight f4 [2, 120]
2.3142638 2.1436682 1.6826975 -0.0029255303 1.4584229 -2.1702685 -1.6575807 5.026486
3.3606002 -3.6798909 -5.635263 0.8249914 1.2540282 1.9894618 1.6565306 -2.002503
5.1427655 1.3397206 1.1346706 2.0607324 0.58139443 3.4468408 3.9132638 -1.6935296
-4.852449 4.478989 -5.525991 -5.3714724 -2.0008302 1.8758593 0.7859133 3.1269064
-1.0428029 3.0698068 -3.196389 1.643029 1.579698 1.868779 3.5590243 -0.60508895
3.0369525 3.997083 2.8702128 1.614447 1.2335359 1.6592921 7.4825883 -7.474565
-4.2810163 3.8234787 -3.9898307 0.9581433 1.2705065 -4.28427 -0.38649052 1.4716377
3.5625126 -2.957804 1.8944818 -4.887693 -1.3677331 2.6047118 1.464708 -2.1578496
-6.117121 3.4331915 2.3092413 1.0181651 0.7724046 2.3620958 1.1551881 0.8249494
-0.37256798 0.4726066 -0.36976725 -0.2886412 -0.4127544 0.6505819 -0.5844715 0.030995483
1.4393289 -0.23869812 0.1708726 -1.2354778 1.2203058 0.81247795 -0.5168161 0.14953187
0.25891703 -0.6673219 -0.4375423 0.8654146 0.6653472 0.10602761 -0.42700315 1.4820712
-0.05816991 -0.68288547 -0.44595754 0.93350196 0.2779523 0.75382507 1.2555499 0.7805912
-0.07115776 0.36089644 -0.20641911 0.24166203 0.2830969 -0.09176346 0.4863362 0.16862428
0.7086619 0.38772374 -0.38204378 -0.5352696 0.50002414 -0.38560686 -0.33278775 -0.0979344
-1.489974 -2.7305071 -2.561283 -2.2488153 -2.0297086 0.6910091 5.211692 -4.757569
-2.4166172 4.251256 7.157688 0.7139704 -2.2202048 -2.2643764 -1.7728623 2.5674403
-2.5500782 -1.6938466 -2.8580353 -2.3452427 -2.2894874 -1.7235295 -1.3899361 2.7135615
4.9475384 -1.970304 5.2320013 6.627014 3.9739308 -2.3020282 -1.4120742 -1.8279616
2.1628747 -3.2886636 2.524499 -2.4372292 -2.156332 -0.8159248 -0.2647569 0.4686319
-5.0278826 -7.1003838 -1.4089078 -2.420211 -2.1782756 -2.4882054 -8.0905905 8.182271
6.3753824 -1.4809625 4.2039723 3.022611 -1.8670006 6.1086235 0.70733756 -1.969814
-4.0707283 -0.52241325 -2.2649114 6.9627743 2.4262867 -1.5661972 -2.4894378 4.5994773
8.142457 -1.4197625 -2.0782437 1.0223681 -2.8831708 -1.7957172 -1.7447072 -2.261901
-0.36280587 -0.61346895 0.10017311 -2.012438 -0.09614351 0.71586376 -0.7594537 -0.18195587
-0.5977178 -0.035851363 0.23321189 1.1315255 -1.3275073 -0.589853 0.5224127 0.14881311
0.35989776 0.090535425 1.338653 -0.09116715 0.3205553 0.038359594 -0.10914575 0.17813724
-0.0068449415 0.31814224 1.1974032 0.46791956 0.33619875 -0.6770688 -0.05324278 -1.3060104
0.043937635 -0.03446478 -0.39139602 0.1603873 -0.62003857 -0.06541002 0.5631353 -0.49529913
0.22614703 0.034440894 -0.3386984 0.542988 -0.051228613 0.2113516 0.0025981427 -0.11683228
00000000: e61c 1440 dc31 0940 a262 d73f 41ba 3fbb
00000010: 9aad ba3f aee5 0ac0 9b2b d4bf f9d8 a040
00000020: 1314 5740 5583 6bc0 1354 b4c0 a332 533f
00000030: ff83 a03f afa6 fe3f 3209 d43f 0229 00c0
00000040: 8991 a440 f77b ab3f e33c 913f 0ae3 0340
00000050: 44d6 143f 0a99 5c40 ea72 7a40 94c5 d8bf
00000060: 4347 9bc0 e153 8f40 ebd4 b0c0 1ae3 abc0
00000070: 9a0d 00c0 281c f03f 9d31 493f 3c1f 4840
00000080: 917a 85bf b777 4440 a391 4cc0 c64e d23f
00000090: 8b33 ca3f 2634 ef3f 0ec7 6340 1ce7 1abf
000000a0: 6e5d 4240 35d0 7f40 91b1 3740 33a6 ce3f
000000b0: 81e4 9d3f af63 d43f 5d71 ef40 a32f efc0
000000c0: 16fe 88c0 e0b3 7440 6359 7fc0 e148 753f
000000d0: f59f a23f bd18 89c0 16e2 c5be a05e bc3f
000000e0: 3500 6440 a94c 3dc0 617e f23f fb67 9cc0
000000f0: e111 afbf 99b3 2640 8d7b bb3f 351a 0ac0
00000100: 75bf c3c0 69b9 5b40 9cca 1340 3c53 823f
00000110: 4fbc 453f 942c 1740 34dd 933f e22f 533f
00000120: 3bc1 bebe 7ef9 f13e 2252 bdbe c8c8 93be
00000130: 8b54 d3be 898c 263f ed9f 15bf 3dea fd3c
00000140: ee3b b83f 486d 74be 3af9 2e3e 2324 9ebf
00000150: fb32 9c3f 8efe 4f3f 0f4e 04bf e21e 193e
00000160: c690 843e 9cd5 2abf 8b05 e0be d08b 5d3f
00000170: 3254 2a3f 0125 d93d 28a0 dabe 82b4 bd3f
00000180: 9243 6ebd 95d1 2ebf 8c54 e4be fcf9 6e3f
00000190: c44f 8e3e aefa 403f dcb5 a03f d3d4 473f
000001a0: 29bb 91bd 6bc7 b83e 885f 53be 4076 773e
000001b0: 14f2 903e 7bee bbbd 0f01 f93e d8ab 2c3e
000001c0: de6a 353f ba83 c63e 3e9b c3be 6e07 09bf
000001d0: 9501 003f 436e c5be 2863 aabe d591 c8bd
000001e0: 78b7 bebf a1c0 2ec0 10ec 23c0 97ec 0fc0
000001f0: bfe6 01c0 f9e5 303f 2ec6 a640 013e 98c0
00000200: dba9 1ac0 4a0a 8840 c80b e540 c4c6 363f
00000210: d617 0ec0 8beb 10c0 27ed e2bf f150 2440
00000220: 7b34 23c0 f7cf d8bf 0dea 36c0 7518 16c0
00000230: f686 12c0 9d9c dcbf 6de9 b1bf feaa 2d40
00000240: 3c52 9e40 ec32 fcbf 8e6c a740 8010 d440
00000250: e254 7e40 6e54 13c0 d9be b4bf a5fa e9bf
00000260: 8a6c 0a40 7779 52c0 6491 2140 90fb 1bc0
00000270: 5801 0ac0 73e0 50bf 378e 87be 85f0 ef3e
00000280: 6ae4 a0c0 5836 e3c0 1757 b4bf bde4 1ac0
00000290: de68 0bc0 c23e 1fc0 0f73 01c1 95ea 0241
000002a0: 2203 cc40 2e90 bdbf f186 8640 7572 4140
000002b0: e0f9 eebf d879 c340 1314 353f dd22 fcbf
000002c0: 6843 82c0 e0bc 05bf 4ff4 10c0 0ccf de40
000002d0: 4848 1b40 2679 c8bf f352 1fc0 eb2e 9340
000002e0: 8147 0241 c7ba b5bf f201 05c0 f5dc 823f
000002f0: df85 38c0 10da e5bf 9152 dfbf fcc2 10c0
00000300: b1c1 b9be 4d0c 1dbf 8f27 cd3d c9cb 00c0
00000310: e3e6 c4bd d942 373f 8f6b 42bf a452 3abe
00000320: 0904 19bf e1d8 12bd 19cf 6e3e d4d5 903f
00000330: c2eb a9bf 9b00 17bf d7bc 053f 7762 183e
00000340: 8544 b83e a36a b93d fb58 ab3f d8b5 babd
00000350: d31f a43e f31e 1d3d cf87 dfbd 9c69 363e
00000360: 884b e0bb 8ae3 a23e 8244 993f 2793 ef3e
00000370: 3e22 ac3e 6254 2dbf 1a15 5abd 592b a7bf
00000380: f3f7 333d f12a 0dbd 0f65 c8be 923c 243e
00000390: d9ba 1ebf b0f5 85bd a329 103f d997 fdbe
000003a0: 1693 673e e511 0d3d e069 adbe 4301 0b3f
000003b0: 18d5 51bd 8e6c 583e 9a45 2a3b c345 efbd
